…
2024-07-26 04:35:39 - [34m[1mLOGS   [0m - [36mModel[0m
SegEncoderDecoder(
  (encoder): OpenClipViT(
    (neural_augmentor): DistributionNeuralAugmentor(
    	Brightness=UniformSampler(min_fn=Clip(min=0.1, max=0.9, clipping=soft), max_fn=Clip(min=1.1, max=10.0, clipping=soft)), 
    	Contrast=UniformSampler(min_fn=Clip(min=0.1, max=0.9, clipping=soft), max_fn=Clip(min=1.1, max=10.0, clipping=soft)), 
    	Noise=UniformSampler(min_fn=Clip(min=0.0, max=5e-05, clipping=soft), max_fn=Clip(min=0.0001, max=1.0, clipping=soft)), )
    (model): CLIPVisionTransformer(
      (embeddings): CLIPVisionEmbeddings(
        (patch_embedding): Conv2d(3, 768, kernel_size=(16, 16), stride=(16, 16), bias=False)
        (position_embedding): Embedding(1025, 768)
      )
      (pre_layrnorm): LayerNorm((768,), eps=1e-05, elementwise_affine=True)
      (encoder): CLIPEncoder(
        (layers): ModuleList(
          (0-11): 12 x CLIPEncoderLayer(
            (self_attn): CLIPAttention(
              (k_proj): Linear(in_features=768, out_features=768, bias=True)
              (v_proj): Linear(in_features=768, out_features=768, bias=True)
              (q_proj): Linear(in_features=768, out_features=768, bias=True)
              (out_proj): Linear(in_features=768, out_features=768, bias=True)
            )
            (layer_norm1): LayerNorm((768,), eps=1e-05, elementwise_affine=True)
            (mlp): CLIPMLP(
              (activation_fn): QuickGELUActivation()
              (fc1): Linear(in_features=768, out_features=3072, bias=True)
              (fc2): Linear(in_features=3072, out_features=768, bias=True)
            )
            (layer_norm2): LayerNorm((768,), eps=1e-05, elementwise_affine=True)
          )
        )
      )
      (post_layernorm): LayerNorm((768,), eps=1e-05, elementwise_affine=True)
    )
    (classifier): None
  )
  (seg_head): DeeplabV3(
    (upsample_seg_out): UpSample(scale_factor=16.0, mode='bilinear')
    (aspp): Sequential(
      (aspp_layer): ASPP(in_channels=768, out_channels=512, atrous_rates=[12, 24, 36], is_aspp_sep=False, dropout=0.1)
    )
    (classifier): Conv2d(512, 104, kernel_size=(1, 1), stride=(1, 1))
  )
)
[31m=================================================================[0m
                  SegEncoderDecoder Summary
[31m=================================================================[0m
Total parameters     =   99.209 M
Total trainable parameters =   99.209 M

2024-07-26 04:35:39 - [34m[1mLOGS   [0m - FVCore Analysis:
2024-07-26 04:35:39 - [34m[1mLOGS   [0m - Input sizes: [1, 3, 224, 224]
…
